lstm_power_model.pth (torch, 73634 bytes, 5 tensors)

lstm.weight_ih_l0 f4 [256, 3]
0	0xbd4e61f2	-0.050386377
1	0xbd969a27	-0.07353621
2	0x3d5a0c0d	0.05323415
3	0xbc140b9e	-0.009035973
4	0xbc24b811	-0.0100536505
5	0x3db7b4f5	0.08970062
6	0xbd7440e4	-0.059632197
7	0x3cd651f9	0.026162134
8	0xbc3dfdf8	-0.011596195
9	0x3d14afb9	0.036300395
10	0x3ddc7357	0.10764187
11	0x3daec2dd	0.08533261
12	0x3e15ab7d	0.14616199
13	0xbd563b1f	-0.052302476
14	0x3dc838cf	0.097764604
15	0xba2e08ea	-0.00066389015
16	0x3dcac34d	0.09900532
17	0x3e05fdfc	0.13085169
18	0x3b246747	0.0025085972
19	0x3dee3119	0.116304584
20	0x3da24383	0.07923033
21	0x3dd89dfa	0.10577007
22	0x3ad0cf68	0.0015930953
23	0x3cef75c3	0.029230958
24	0x3cbb0d02	0.022833351
25	0xbd420ec4	-0.047377363
26	0x3c6bc11c	0.014389303
27	0xbd2434b1	-0.040089313
28	0x3da662d3	0.08124318
29	0xbbcbfca7	-0.006225187
30	0x3d847046	0.06466727
31	0x3c9327d7	0.017963333
32	0x3dbcebc1	0.09224654
33	0xbd79cf60	-0.060988784
34	0xbde9596d	-0.1139401
35	0x3d373538	0.044728488
36	0x3e0ee5ae	0.13954803
37	0xbd54b08f	-0.051926192
38	0x3c89b8ca	0.016811747
39	0xbdbc6ab8	-0.092000425
40	0xbd0cc90a	-0.034371413
41	0x3c56c5df	0.0131087
42	0x3d25a8bc	0.04044412
43	0x3b47eadb	0.0030504975
44	0xbd5bdb28	-0.0536758
45	0xbd944568	-0.07239801
46	0x3ddceb6c	0.10787091
47	0x3dd16991	0.10225213
48	0x3b8f553e	0.0043741753
49	0x3d4adaff	0.049525257
50	0x3e055757	0.13021599
51	0x3d6d6b0c	0.057963416
52	0xbdb3d55b	-0.08780929
53	0x3c6c0c6b	0.014407258
54	0x3e139b5f	0.14414738
55	0x3e1edd90	0.15514207
56	0xbcf42dce	-0.029806998
57	0x3dd450c4	0.10366967
58	0x3d9c69d8	0.076373756
59	0x3df1b5a2	0.11802222
60	0xbb1f322a	-0.0024291375
61	0x3dada445	0.084785976
62	0x3cfef188	0.03112103
63	0x3d289ea4	0.041166916
64	0x3e12a651	0.14321257
65	0x3dfb3071	0.12265099
66	0xbc064056	-0.00819405
67	0xbd6828dd	-0.056679595
68	0xbcb5b0fb	-0.022179117
69	0x3becfb28	0.0072320886
70	0x3def0bae	0.116721496
71	0xbd9ad34f	-0.07559835
72	0x3d230ff8	0.03981015
73	0xbd5b1f2a	-0.053496517
74	0x3e07f7e7	0.13278161
75	0xbca29a87	-0.019849075
76	0x3e0d0608	0.13771832
77	0x3e0e00a8	0.13867438
78	0xbd78376d	-0.060599733
79	0xbd87f6b1	-0.066388495
80	0xbc7fb967	-0.015608168
81	0xbcb8080f	-0.02246478
82	0xbc94f0a3	-0.01818115
83	0xbb9efdf6	-0.004852052
84	0x3dc273f7	0.09494775
85	0x3e1e9203	0.15485387
86	0xbd0eac56	-0.03483232
87	0xbda7cb28	-0.08193046
88	0xbd9e8957	-0.07741039
89	0x3dc8ce59	0.09804983
90	0x3d790e7a	0.06080482
91	0xbd632a61	-0.055460338
92	0xbd5b0535	-0.053471763
93	0x3df2adbc	0.118495435
94	0x3bb85287	0.0056250724
95	0x3dd423bb	0.103583775
96	0xbd9c0d36	-0.07619707
97	0x3da468c0	0.08027792
98	0x3dbb9b05	0.09160427
99	0x3ddd9bd6	0.10820739
100	0xbb3b7a8a	-0.0028606975
101	0xbbaa5dd5	-0.005199174
102	0x3e0eb19d	0.13934942
103	0x3dc55e57	0.096371345
104	0x3dc47154	0.09591928
105	0x3d70f0e9	0.0588235
106	0x3ddc9056	0.107697174
107	0xbd31f1be	-0.043443434
108	0x3d9515f2	0.07279576
109	0xbd785fe3	-0.06063832
110	0x3d83c684	0.06434348
111	0x3c086724	0.008325372
112	0x3cb1c001	0.021698
113	0xbd7d0496	-0.06177195
114	0x3d62379e	0.055228822
115	0xba86246c	-0.0010234243
116	0xbc92130b	-0.017831346
117	0x3e0a9a07	0.1353532
118	0x3d16c660	0.03681028
119	0xbd6e0935	-0.05811425
120	0xbbf437f4	-0.007452959
121	0x3db6038b	0.088873945
122	0xbd8836a6	-0.06651048
123	0x3d876e97	0.0661289
124	0xbcdf5cd6	-0.027265947
125	0x3e0aee42	0.1356745
126	0x3dc2486c	0.094864696
127	0x3d09fffc	0.03369139
128	0x3e127472	0.14302233
129	0xbcd78b8d	-0.02631166
130	0x3dbc8c52	0.092064515
131	0x3cccc6f8	0.02499722
132	0x3d9d688f	0.076859586
133	0xbbcc33d9	-0.0062317667
134	0x3e035151	0.12823988
135	0xbce7bf9c	-0.028289609
136	0x3c90c109	0.017670171
137	0x3daf797c	0.08568093
138	0x3e00c1d4	0.1257394
139	0x3b9c9f8e	0.0047797626
140	0x3db6614c	0.08905277
141	0x3de12808	0.109939635
142	0x3ddab76f	0.106795184
143	0x3d039cb9	0.032131884
144	0x3dcb0404	0.09912875
145	0xbcb99d7b	-0.0226581
146	0x3d9b4f9a	0.07583542
147	0xba1adb70	-0.00059073325
148	0xbd9d60ed	-0.07684503
149	0x3ddd6148	0.108095706
150	0xbd6eecb2	-0.0583312
151	0x3ce14df4	0.027502991
152	0x3d50b377	0.0509524
153	0x3cf70fd6	0.030158918
154	0x3d91773e	0.07102822
155	0x3e198c87	0.14995013
156	0x3d8f0853	0.069840096
157	0xbb99c000	-0.0046920776
158	0x3cd7b103	0.026329523
159	0xbd876ca3	-0.06612518
160	0x3b2699a7	0.0025421174
161	0x3e081e9f	0.13292931
162	0x3d1df09e	0.03855955
163	0x3d839c90	0.06426346
164	0xbc10cd4c	-0.008838009
165	0x3d59f72f	0.05321425
166	0x3de2eb4b	0.11080035
167	0x3e0c4b2b	0.1370055
168	0xbd82de45	-0.06390051
169	0x3cea89ed	0.028630221
170	0xbd80712e	-0.06271587
171	0xbba5f504	-0.0050646085
172	0x3cf73414	0.0301762
173	0x3bcfbae9	0.00633942
174	0xba5ef327	-0.00085048605
175	0x3dbbac85	0.09163765
176	0xbcef6ff8	-0.029228196
177	0x3e1dc073	0.15405445
178	0x3e02a03b	0.12756436
179	0xbd5d1198	-0.053971857
180	0x3ddfff11	0.10937322
181	0x3d07b125	0.033127923
182	0xbd8274a1	-0.063699014
183	0x3dcd529c	0.10025522
184	0xbd7b2bd7	-0.061321106
185	0xbd7aab3b	-0.061198454
186	0x3d409adf	0.047022697
187	0x3d3bb429	0.04582611
188	0x3d0b3377	0.033984628
189	0x3e1347a9	0.14382805
190	0x3dfd55c6	0.123698756
191	0x3d704d85	0.05866768
192	0xbca9ff7f	-0.020751713
193	0xbcc69579	-0.024241196
194	0x3c1cacf8	0.009562723
195	0x3dca6674	0.09882823
196	0xbccc8544	-0.02496589
197	0x3cc307fe	0.023807522
198	0x3dc8b569	0.09800226
199	0x3de12f5b	0.109953605
200	0x3dec90bb	0.11551043
201	0x3cf9a4ae	0.030474033
202	0xbd896598	-0.067088306
203	0x3c7bda35	0.015371849
204	0xbcd6fc4f	-0.026243357
205	0x3ca518ff	0.02015352
206	0xbc003056	-0.007824024
207	0xbbdf6e83	-0.006818594
208	0x3d8640a2	0.065552965
209	0x3cd872b1	0.026421877
210	0x3e149aea	0.1451222
211	0x3dcea11b	0.10089322
212	0x3e1a295f	0.15054844
213	0xbd5163c6	-0.051120542
214	0x3d0e573b	0.03475116
215	0xbca6208d	-0.020279193
216	0xbd649953	-0.055810284
217	0xbb6a9df3	-0.0035799711
218	0x3d7257bf	0.059165712
219	0xbd67fa3b	-0.056635123
220	0xbc25e231	-0.010124729
221	0x3dd050c1	0.101716526
222	0xbc3830e4	-0.011242125
223	0xbd9bc39a	-0.076056674
224	0x3d31db08	0.043421775
225	0x3dbd5392	0.092444554
226	0x3d182ce7	0.037152197
227	0xbdc0a8c1	-0.09407187
228	0x3dfb70f7	0.12277406
229	0x3d849b30	0.06474912
230	0xbd0ad51c	-0.033894643
231	0x3c85e685	0.016345272
232	0xbcd71474	-0.02625487
233	0x3da93eeb	0.08263954
234	0x3e0de7a7	0.138579
235	0xbc1eb4f9	-0.009686702
236	0x3e1f187c	0.15536684
237	0x3d6fb796	0.05852469
238	0x3e0bbc12	0.13645962
239	0x3de2e94b	0.11079653
240	0xbd3b0744	-0.045661226
241	0x3c841fd8	0.016128466
242	0x3dc486fb	0.09596058
243	0x3dcbefea	0.09957869
244	0x3e1b84e0	0.15187407
245	0x3dc087f5	0.09400932
246	0x3d21d481	0.0395093
247	0x3e04458f	0.1291716
248	0x3d83db7a	0.06438346
249	0x3dd213a6	0.10257654
250	0x3df54cb9	0.11977524
251	0xbd381efd	-0.044951428
252	0xb926ee6c	-0.00015919813
253	0x3c5a1e7e	0.013312934
254	0x3d84f2ce	0.06491624
255	0x3dde5252	0.10855545

lstm.weight_hh_l0 f4 [256, 64]
0	0xbd7f7afd	-0.06237315
1	0x3e22e209	0.15906538
2	0xbdbde258	-0.09271687
3	0xbdaa542d	-0.083168365
4	0xbdcd3d6c	-0.10021481
5	0x3d27d0d3	0.040970635
6	0x3d63d7ee	0.05562585
7	0x3dffb9f2	0.12486638
8	0x3b9f0455	0.0048528113
9	0x3d7c8ccf	0.061657723
10	0x3d18be5a	0.03729091
11	0x3d92d20e	0.07168971
12	0x3cf908fb	0.03039979
13	0x3de2b50c	0.11069688
14	0x3d741d10	0.05959803
15	0xbce4aa2a	-0.027913172
16	0x3dc3adfe	0.09554671
17	0x3e2147d0	0.1575005
18	0xbc349b14	-0.011023302
19	0xbd684a38	-0.056711406
20	0x3bd189bb	0.0063945926
21	0x3d1e1919	0.038598154
22	0xbe308fdb	-0.17242377
23	0xbe13974b	-0.14413182
24	0x3db3107b	0.08743378
25	0x3ddb3c02	0.10704805
26	0xbbea05c3	-0.0071418
27	0x3d6ee948	0.058327943
28	0x3d6b504a	0.057449616
29	0x3d9cf2fd	0.07663534
30	0x3d699f69	0.05703679
31	0xbd95f9b2	-0.07323016
32	0x3de58a96	0.11208074
33	0xbdd417a7	-0.10356074
34	0x3d9b0512	0.075693265
35	0xbc891655	-0.016734282
36	0x3d326988	0.043557674
37	0xbcbc7796	-0.023006242
38	0x3ae10d11	0.0017170032
39	0xbe1ad5e8	-0.15120661
40	0x3d34e093	0.044159483
41	0x3d51059b	0.051030736
42	0x3e2b9099	0.16754378
43	0x3cef4acc	0.02921047
44	0x3cf012c2	0.02930582
45	0xbc57be65	-0.013167952
46	0xbdfb16ff	-0.122602455
47	0x3dd42665	0.10358886
48	0x3c021815	0.007940312
49	0x3d36a1dc	0.044587955
50	0x3cc9494a	0.02457108
51	0x3dadb041	0.084808834
52	0x3d37257e	0.04471349
53	0x3d00c465	0.031437296
54	0x3db83d13	0.08996024
55	0xbe23bb45	-0.15989406
56	0xbd16b4f5	-0.036793668
57	0x3c4cbc23	0.012496027
58	0x3cf03ba1	0.029325308
59	0x3e0136e5	0.12618597
60	0x3dc3dd2b	0.09563669
61	0x3e0202ca	0.12696376
62	0x3d23d937	0.040002074
63	0x3e1c54fe	0.15266797
64	0xbc990524	-0.018679209
65	0x3e204b53	0.15653734
66	0x3d832161	0.06402851
67	0xbe04abda	-0.12956181
68	0xbdd08824	-0.10182217
69	0xbdccdc34	-0.10002938
70	0x3c8dbe88	0.017302766
71	0x3cade87f	0.021229027
72	0xbd5bd764	-0.05367221
73	0xbd326dc0	-0.043561697
74	0xbd99788f	-0.07493698
75	0xbdcbb40f	-0.09946453
76	0xbbd83a1a	-0.006598723
77	0x3d3a0dfe	0.0454235
78	0xbc4f9317	-0.012669346
79	0x3ca4962c	0.020091139
80	0x3db11d30	0.08648145
81	0x3df2a5a4	0.11848
82	0xbd8b38a1	-0.067979105
83	0xbd9737d4	-0.07383695
84	0x3d843a49	0.064564295
85	0x3b586f01	0.0033025148
86	0xbcfbcd85	-0.030737648
87	0xbc5e120b	-0.0135541065
88	0x3d34e01c	0.04415904
89	0xbcb7835e	-0.022401508
90	0x3a601e16	0.0008549405
91	0xbd36f013	-0.044662546
92	0xbce38266	-0.02777214
93	0xbca36133	-0.01994381
94	0x3dacbfac	0.08434996
95	0xbcda2a5c	-0.026631527
96	0x3dedb87b	0.116074525
97	0xbb08b0d8	-0.002085736
98	0x3a2d0f33	0.0006601691
99	0xbcdd8469	-0.027040677
100	0xbc371e68	-0.011176683
101	0xbdd4c0ac	-0.10388312
102	0x3cab6bfe	0.020925518
103	0x3d595f86	0.053069614
104	0xbbd0f544	-0.006376894
105	0x3dc4a404	0.09601596
106	0xbd8c2740	-0.06843424
107	0xbd574e28	-0.05256477
108	0xbd901bf6	-0.07036583
109	0xbdf4b08a	-0.11947735
110	0x3d00a457	0.031406727
111	0xbdcc3b1e	-0.09972213
112	0x3d6e5f60	0.058196425
113	0xbdc79fd0	-0.09747279
114	0xbdfc97d3	-0.12333646
115	0x3d897067	0.06710892
116	0xbd760bb8	-0.06006977
117	0xbdf456d6	-0.11930625
118	0x3d9c503c	0.07632491
119	0xbd0a6158	-0.03378424
120	0xbc81b06d	-0.015831197
121	0xbdd52883	-0.104081176
122	0xbd6249ed	-0.055246282
123	0x3d83f178	0.06442541
124	0x3c96a8e9	0.01839109
125	0xbd9123fd	-0.07086942
126	0xbdcab1f4	-0.09897223
127	0x3da5f5ee	0.08103548
128	0x3d827a2d	0.063709594
129	0x3e070a86	0.13187608
130	0xbd250264	-0.040285483
131	0xbd03f8c0	-0.03221965
132	0x3d261472	0.040546842
133	0x3d23623e	0.039888613
134	0x3e10ff95	0.14159997
135	0xbdaecb0e	-0.08534823
136	0x3d40dbd5	0.04708465
137	0x3d8d3313	0.06894507
138	0xbcb14b69	-0.021642404
139	0xbde8d03b	-0.11367842
140	0x3dd794cf	0.1052643
141	0xbdc04fbe	-0.093902096
142	0x3d8bffd3	0.06835904
143	0xbe080906	-0.13284692
144	0xbc202374	-0.009774078
145	0xbd9e9bc8	-0.07744557
146	0x3d2416ef	0.040060934
147	0xbd03c369	-0.03216878
148	0xbda5a7bf	-0.08088636
149	0xbc5bc2b9	-0.013413125
150	0x3d9da5f9	0.076976724
151	0xbd846c84	-0.0646601
152	0xbb15c9fd	-0.002285599
153	0x3dad8319	0.084722705
154	0xbd216f5f	-0.039412852
155	0x3e1eec57	0.15519844
156	0x3d64f448	0.055897027
157	0x3d82c03e	0.063843235
158	0x3c09b55a	0.008405054
159	0xbc10599d	-0.008810428
160	0xbc71d6fe	-0.014760731
161	0x3d9079d1	0.07054485
162	0x3d5e6eeb	0.054305
163	0x3bb06fe0	0.0053844303
164	0xbd9c1f1e	-0.07623123
165	0xbd54d26a	-0.05195848
166	0xbd0672ae	-0.03282421
167	0xbdc89e24	-0.09795788
168	0x3df7017a	0.120608285
169	0x3e1e7e20	0.154778
170	0xbc97c276	-0.018525343
171	0x3d8b1929	0.06791908
172	0x3e0f4e8f	0.13994811
173	0xbd9ef3e8	-0.07761365
174	0xbd92652f	-0.071482055
175	0xbdcac86b	-0.09901508
176	0xbdbc6994	-0.09199825
177	0x3d5465b6	0.05185481
178	0xbd9654dd	-0.07340405
179	0x3b7d153a	0.0038617388
180	0xbe03ff19	-0.12890281
181	0xbd11f51f	-0.035634156
182	0x3dbed24a	0.09317453
183	0xbe0ad888	-0.13559163
184	0x3d97f0d3	0.074189804
185	0xbc601249	-0.0136762345
186	0xbd020ad5	-0.03174861
187	0x3d7b8258	0.061403602
188	0xbd7261a3	-0.059175145
189	0xbdcbd325	-0.09952382
190	0xbde15bb9	-0.11003823
191	0x3d396e3b	0.04527114
192	0xba8af6fa	-0.0010602169
193	0x3d6a53af	0.057208713
194	0xbe063654	-0.13106662
195	0x3b840c82	0.0040298114
196	0xbde8ed2a	-0.113733605
197	0xbe21561c	-0.15755504
198	0xbd9b1089	-0.07571513
199	0x3d749444	0.05971171
200	0xbe205fe5	-0.15661581
201	0xbcdd0dd0	-0.026984125
202	0x3e1c116d	0.15241022
203	0xbe046071	-0.12927414
204	0xbd8961e9	-0.06708128
205	0x3b8c16a0	0.004275158
206	0xbdb774eb	-0.08957847
207	0xbe029c02	-0.12754825
208	0x3d65adaf	0.05607384
209	0x3dfc5ed9	0.12322778
210	0x3c8b1ca8	0.016981438
211	0xbdd06bfc	-0.101768464
212	0x3dc45178	0.095858514
213	0x3b93387c	0.0044928174
214	0xbcab9e51	-0.020949515
215	0xbdbab3b1	-0.09116305
216	0x3c46bca4	0.012129936
217	0x3d6b4871	0.057442132
218	0x3c9ad944	0.018902428
219	0xbd31613d	-0.043305624
220	0x3ced069a	0.028933812
221	0x3d64a7d1	0.055824105
222	0xbd80e8ab	-0.06294378
223	0xbd3f142d	-0.0466501
224	0xbd02e7e8	-0.031959444
225	0xbe056dea	-0.1303021
226	0xbc91ab15	-0.017781774
227	0x3d25c22e	0.040468387
228	0xbe06f5c3	-0.13179688
229	0x3d516145	0.051118154
230	0x3d9f8a91	0.07790101
231	0xbe227ab5	-0.15867122
232	0xbdeef2ca	-0.11667402
233	0x3e01eb02	0.12687305
234	0x3dc6c8f2	0.09706296
235	0xbdbf53da	-0.09342165
236	0xbd50e0c5	-0.050995607
237	0xbdd2bdd7	-0.10290115
238	0x3d31ff56	0.043456398
239	0x3cb262b3	0.02177558
240	0xbc561d63	-0.01306853
241	0xbdeefbfb	-0.11669155
242	0xbe1dc3b3	-0.15406685
243	0xbb968963	-0.0045940145
244	0xbd3a4d5b	-0.04548393
245	0x3d39c9fc	0.045358643
246	0xbd19129c	-0.037371263
247	0xbe028a24	-0.12748009
248	0xbb673fe1	-0.0035285878
249	0xbc40ac13	-0.011759776
250	0xbdc84584	-0.09778884
251	0xbd777240	-0.06041169
252	0xbd13ee01	-0.03611565
253	0xbdad11f4	-0.0845069
254	0x3da90564	0.08252981
255	0xbd829393	-0.06375804

lstm.bias_ih_l0 f4 [256]
0	0x3dcbef00	0.09957695
1	0x3d5e8539	0.05432627
2	0xba574cec	-0.00082130614
3	0x3dfee7e9	0.12446577
4	0x3d5acf5b	0.053420406
5	0x3d6e649c	0.058201417
6	0xbd0db615	-0.034597475
7	0x3ddb81e8	0.10718137
8	0x3cd177e2	0.02556986
9	0x3e10d143	0.14142327
10	0x3d92f969	0.071764775
11	0xbb9da9d7	-0.0048115063
12	0xbd4dad8e	-0.050214343
13	0xbdc5128e	-0.0962268
14	0x3e0d0b00	0.13773727
15	0xbd61f2b6	-0.055163108
16	0x3e177777	0.14791666
17	0x3d75cf97	0.060012426
18	0xbd466000	-0.048431396
19	0xbca30585	-0.019900093
20	0x3da4e1b7	0.08050864
21	0xbcc7bb56	-0.02438132
22	0x3d9b0d7d	0.07570932
23	0x3d8f15de	0.06986593
24	0xbd4db598	-0.05022201
25	0x3e1d3f1e	0.15356109
26	0x3e12d235	0.14338
27	0x3df5aa07	0.11995321
28	0x3d1835b6	0.037160598
29	0xbdab2561	-0.08356739
30	0x3d98ccd8	0.07460946
31	0xbce4b825	-0.027919838
32	0x3db5ba74	0.08873454
33	0x3de4800a	0.11157234
34	0xbd76c058	-0.060242027
35	0x3d0e0246	0.034670137
36	0x3d6c6680	0.05771494
37	0xbbcbc07c	-0.0062180143
38	0x3df11f53	0.11773553
39	0xbd025ef1	-0.031828824
40	0xbdc29fb3	-0.095031165
41	0xbd2c9a81	-0.042139534
42	0x3dd2cd2a	0.10293038
43	0xbd99622e	-0.074894294
44	0xbd91b948	-0.07115418
45	0xbdd4b849	-0.10386712
46	0x3de54d10	0.11196339
47	0xbdbc1e78	-0.09185499
48	0x3e02028d	0.12696286
49	0x3dab956e	0.08378111
50	0xbda7d844	-0.08195546
51	0x3db0d052	0.08633484
52	0x3debfd35	0.11522905
53	0x3de44637	0.11146205
54	0x3d4faed1	0.050703827
55	0x3d2dfe0d	0.04247861
56	0x3e090241	0.13379766
57	0x3df2925c	0.11844322
58	0x3dee923c	0.11648986
59	0xbd392f70	-0.045211256
60	0x3d90acef	0.070642345
61	0x3d90d969	0.07072718
62	0x3d7e3ae2	0.062067874
63	0x3dc78ffc	0.0974426
64	0x3b01d8d6	0.0019813082
65	0xbd03ae97	-0.032148924
66	0xbd31955a	-0.043355323
67	0x3df49c94	0.119439274
68	0xbd7c972e	-0.061667614
69	0xbda4b94c	-0.08043155
70	0xbd07a937	-0.03312036
71	0x3e0605e3	0.13088183
72	0x3e0a4d1b	0.13505976
73	0x3d7b8ae8	0.06141177
74	0x3d03e57d	0.03220128
75	0xbdc81267	-0.09769135
76	0x3d009301	0.031390194
77	0xbc69d70d	-0.0142724635
78	0x3deb6c3e	0.11495255
79	0x3e1c51fc	0.1526565
80	0x3e032c93	0.12809972
81	0xbc3e253a	-0.011605555
82	0x3e1c9128	0.15289748
83	0x3dcc1674	0.0996522
84	0x3c292d2f	0.010325714
85	0xbd4052e1	-0.04695404
86	0xbcc3e2bf	-0.023911832
87	0x3dac7310	0.08420384
88	0x3d16d127	0.036820557
89	0x3c2dcc02	0.010607721
90	0x3e1cdb2d	0.15317984
91	0x3c923af5	0.017850379
92	0xbbac5183	-0.0052587404
93	0x3d1bdca7	0.038052227
94	0x3db48e94	0.08816257
95	0x3e0feb34	0.14054567
96	0x3e25e7b9	0.16201676
97	0xbcf68822	-0.03009421
98	0xbc9129e7	-0.017720176
99	0xbd71a99a	-0.058999635
100	0x3d6381bc	0.055543646
101	0xbd8532d9	-0.06503839
102	0x3deb9471	0.11502922
103	0xbcda1b63	-0.026624387
104	0xbd80e3e7	-0.06293469
105	0xbd71b286	-0.059008144
106	0x3deffc3e	0.11718033
107	0x3decafe8	0.11556989
108	0x3dd2d76e	0.10294996
109	0x3ddf328c	0.10898313
110	0x3d3463de	0.044040553
111	0x3d5147db	0.051093917
112	0x3dcb1a0b	0.09917077
113	0x3e0e391b	0.13888972
114	0xbd33769d	-0.04381429
115	0xbbb70e79	-0.005586442
116	0x3d9c6e92	0.07638277
117	0xbb07358d	-0.0020631284
118	0x3bd43537	0.0064760703
119	0xbd1941f3	-0.03741641
120	0x3e0e7e07	0.13915263
121	0x3da4c068	0.08044511
122	0xba84f3a4	-0.0010143411
123	0x3dbbee6d	0.091763355
124	0xbd6be012	-0.057586737
125	0x3dc44997	0.09584349
126	0x3d1baf63	0.03800906
127	0xbc183a0c	-0.009291183
128	0xbd91203e	-0.07086228
129	0xbd7001c4	-0.058595434
130	0xbc67c216	-0.014145395
131	0xbdae3de9	-0.08507902
132	0x3c826d71	0.015921326
133	0xbe179e3f	-0.1480646
134	0x3ca9a0f1	0.020706626
135	0x3dd0df25	0.101988114
136	0xbe069f5a	-0.13146725
137	0x3d3401e0	0.0439471
138	0x3e234511	0.15944315
139	0xbbeef46f	-0.0072923223
140	0x3d24e454	0.040256813
141	0x3d2e0c4f	0.042492207
142	0xbdbc33b3	-0.09189548
143	0x3d913c00	0.07091522
144	0x3d9a0e13	0.07522216
145	0x3e0be975	0.13663276
146	0xbd8c91b2	-0.06863727
147	0xbe1ffd78	-0.15624034
148	0x3c453d82	0.01203859
149	0x3d7c175e	0.061545722
150	0xbdbb76b2	-0.09153499
151	0x3c9528d4	0.018207945
152	0x3d6122ce	0.054964833
153	0x3e06b4ce	0.13154909
154	0xbcb06ec8	-0.0215372
155	0x3e14b712	0.14522961
156	0xbd4d83ac	-0.0501744
157	0x3d5c71c1	0.05381942
158	0xbe20809e	-0.15674064
159	0xbd791103	-0.06080724
160	0x3e2c6d91	0.16838671
161	0xbd840d2d	-0.064478256
162	0xbd59fefd	-0.05322169
163	0x3d8b2290	0.06793702
164	0x3d213fea	0.039367594
165	0x3de43b87	0.111441664
166	0x3d62e227	0.055391457
167	0x3ceb2798	0.028705403
168	0x3d91fc7e	0.07128237
169	0x3c9bb244	0.019005902
170	0xbdabb8cd	-0.08384857
171	0x3c4f4ea9	0.012653031
172	0xbd2b6e07	-0.041852977
173	0xbcd31914	-0.025768794
174	0xbd50597b	-0.050866585
175	0xbda52dd4	-0.08065382
176	0xbda78b13	-0.08180823
177	0xbd027f58	-0.031859726
178	0xbcc5eec4	-0.024161704
179	0x3dff8433	0.12476387
180	0xbd353e76	-0.04424902
181	0xbd664933	-0.056222152
182	0x3d32a725	0.043616433
183	0x3d8d56f6	0.06901352
184	0x3be97bbd	0.0071253465
185	0xbd5b717d	-0.053575028
186	0x3cbfc6f8	0.023410305
187	0x3db0a339	0.08624882
188	0xbda96278	-0.082707345
189	0xbd876831	-0.0661167
190	0x3dea23ef	0.11432635
191	0xbd839156	-0.06424205
192	0x3d0c6d14	0.034283713
193	0x3dac931e	0.08426498
194	0x3e36222c	0.17786473
195	0x3e0a0a4c	0.1348049
196	0x3e15425d	0.14576097
197	0xbcdbd442	-0.02683461
198	0x3ddf2348	0.10895401
199	0x3e496d43	0.19670586
200	0x3c1fa9ea	0.0097451005
201	0x3de6bf07	0.11266904
202	0x3c6085f4	0.013703812
203	0x3dab7da6	0.08373575
204	0x3e363129	0.1779219
205	0x3e4767d0	0.19473195
206	0x3e1dcbbd	0.15409751
207	0x3dc28015	0.09497086
208	0x3de17bc4	0.110099345
209	0x3e49afa9	0.19695915
210	0x3d7989ae	0.060922317
211	0x3e1fe2dd	0.15613885
212	0x3db20dd5	0.086940445
213	0x3df0efac	0.11764464
214	0xbbae3899	-0.0053168056
215	0xbc846ea3	-0.016166037
216	0x3deac6f2	0.11463727
217	0x3e389708	0.18026364
218	0x3e0dbf5a	0.13842526
219	0x3c15e6cb	0.009149264
220	0x3d1dbe38	0.038511485
221	0x3e2d5626	0.16927394
222	0x3de31d84	0.11089614
223	0x3e56a7d3	0.20962457
224	0x3e27e23a	0.16394892
225	0x3e28516c	0.1643731
226	0x3cf4b6b7	0.029872281
227	0xbca7349a	-0.020410825
228	0x3db959e4	0.090503484
229	0xbaf87a47	-0.001895734
230	0x3d341776	0.043967687
231	0x3da3a087	0.079896025
232	0x3e3cf9ce	0.18454668
233	0x3e3cd274	0.18439656
234	0x3d8f5c87	0.0700007
235	0x3d114ef4	0.035475686
236	0x3e103d90	0.14085984
237	0xbd646488	-0.055759937
238	0x3e523d50	0.20531201
239	0xbc13d2f2	-0.009022461
240	0x3d82a805	0.063797034
241	0x3ded98f7	0.11601441
242	0x3e1aee88	0.15130055
243	0x3cf3601c	0.029708914
244	0x3dbeabdd	0.09310124
245	0x3e2f32ae	0.17109177
246	0xbc31ea44	-0.010859076
247	0x3e48b79c	0.19601291
248	0x3dba0911	0.090837605
249	0x3e424f3b	0.18975537
250	0x3d156960	0.036477447
251	0x3de16cd8	0.110070884
252	0x3e4a6aa2	0.1976724
253	0x3d106aaa	0.035257973
254	0x39863e46	0.0002560487
255	0x3e5dd351	0.21662642

lstm.bias_hh_l0 f4 [256]
0	0xbd82129c	-0.06351206
1	0xbd97005a	-0.07373114
2	0xbd643b2f	-0.055720504
3	0x3e0d338a	0.13789192
4	0x3e235df4	0.15953809
5	0xbdbb4dcc	-0.09145698
6	0xbd8a18a6	-0.067429826
7	0x3e130ade	0.14359614
8	0x3d58a286	0.05288937
9	0x3d6c1385	0.057635803
10	0x3cbcd79a	0.023052026
11	0x3cc084f2	0.023500893
12	0x3d625927	0.055260804
13	0x3d37179b	0.044700246
14	0xbc48d97e	-0.012258885
15	0x3cb3ab9f	0.021932421
16	0x3dc7ab79	0.09749503
17	0x3de7adeb	0.11312469
18	0x3dc7b20f	0.09750759
19	0x3db8dfea	0.09027083
20	0xbd66a718	-0.056311697
21	0xbd67b01d	-0.05656444
22	0xbda40f8d	-0.080107786
23	0x3d81d0c1	0.06338645
24	0x3dd74cc2	0.10512687
25	0x3ddbcec9	0.107328005
26	0x3e0436b7	0.12911497
27	0x3e19fee3	0.15038638
28	0x3cc050f9	0.02347611
29	0x3b446a49	0.0029970577
30	0xbd119377	-0.035541024
31	0xbd2cb0dd	-0.042160857
32	0x3d9c2f50	0.07626212
33	0x3d92e4a2	0.071725145
34	0x3d41e4e7	0.04733744
35	0x3e0e630b	0.1390497
36	0x3aaaca9b	0.0013030352
37	0x3dbe0ee5	0.09280185
38	0xbd248d16	-0.040173613
39	0x3d778ccf	0.06043702
40	0x3cce392d	0.025173748
41	0x3d861034	0.06546059
42	0x3df96292	0.12177004
43	0xbd7b9ed7	-0.06143078
44	0xbd899fc8	-0.06719929
45	0xbd19c262	-0.037538894
46	0xbd7d16bd	-0.061789263
47	0xbd0f40d0	-0.03497392
48	0xba4da2b4	-0.0007844374
49	0xbd3c631d	-0.04599296
50	0xbda23620	-0.0792048
51	0xbcb44f24	-0.022010393
52	0x3cde1cc2	0.027113322
53	0xbdc4a8ef	-0.09602534
54	0xbce14bea	-0.027502019
55	0xbcd0debb	-0.025496831
56	0xbcb9ea99	-0.022694873
57	0x3ce8bdd5	0.028410831
58	0x3c9677a8	0.018367603
59	0xbd877bca	-0.06615408
60	0xbd4934cf	-0.049122628
61	0xbcaccc78	-0.021093592
62	0x3c1f9355	0.009739717
63	0x3d145a80	0.03621912
64	0xbcf6e373	-0.030137753
65	0x3ca84f26	0.020545553
66	0x3ced0350	0.028932244
67	0xbd86cc08	-0.065818846
68	0x3dd92960	0.10603595
69	0xba4fecef	-0.0007931729
70	0xbd1b4b78	-0.03791377
71	0x3d3dafe7	0.04631033
72	0xbc7b7098	-0.015346669
73	0xba9e88e0	-0.0012095235
74	0x3e21b7b0	0.15792727
75	0x3c123510	0.008923784
76	0x3d4a3cf1	0.049374525
77	0xbd6a227c	-0.057161793
78	0xbd95f0f6	-0.0732135
79	0xbc0629f3	-0.008188712
80	0x3d52ccec	0.05146496
81	0xbb6a1840	-0.003572002
82	0x3de03ba2	0.10948874
83	0x3cf5fb46	0.030027043
84	0xbd03d63c	-0.03218673
85	0x3e2089af	0.15677522
86	0xbc58eca6	-0.013240015
87	0x3d9c74c2	0.07639457
88	0xbd6a7d61	-0.057248477
89	0x3d82f11d	0.06393645
90	0x3d91d7d9	0.07121248
91	0xbcabaa76	-0.020955306
92	0x3dfdc6dd	0.12391446
93	0xbdb90589	-0.09034259
94	0xbd4233e8	-0.047412783
95	0x3ce48f9e	0.027900513
96	0xbd8642f2	-0.065557376
97	0x3da2d154	0.079500824
98	0xbdc140f5	-0.09436218
99	0xbd9259c0	-0.07146025
100	0x3d1d0136	0.038331233
101	0xbc847b6d	-0.016172135
102	0x3d2f2d67	0.04276791
103	0xbc02366c	-0.0079475455
104	0xbde5a5cb	-0.11213263
105	0x3e18ad59	0.14909877
106	0xbda686cc	-0.08131179
107	0x3d6a9405	0.05727007
108	0x3d70875e	0.058722846
109	0x3dfae1f8	0.12250131
110	0x3d0e9b66	0.03481617
111	0x3e17f0e3	0.14837985
112	0xbd8c3455	-0.06845919
113	0xbbe9e917	-0.007138382
114	0xbda4eae0	-0.08052611
115	0x3df6aa87	0.12044244
116	0xbd1a967a	-0.037741162
117	0xbda20237	-0.07910579
118	0xbd027504	-0.031849876
119	0x3dfe882d	0.12428317
120	0x3ce12971	0.027485581
121	0x3dc13b1f	0.094351046
122	0x3ddb8b36	0.10719912
123	0x3d7561ef	0.05990785
124	0x3c888824	0.01666648
125	0x3dae38cc	0.08506927
126	0x3da98bf2	0.082786456
127	0x3dbb360a	0.091411665
128	0xbdec902d	-0.11550937
129	0xbd82ed29	-0.06392891
130	0xbda3040b	-0.079597555
131	0xbd3f7918	-0.046746343
132	0xbe0d3bda	-0.13792363
133	0xbdfd687d	-0.12373445
134	0x3c7f83f3	0.015595424
135	0xbcd8942a	-0.026437838
136	0x3c07bf5b	0.008285369
137	0x3dadf020	0.08493066
138	0xbd818b5b	-0.06325408
139	0xbd87e344	-0.06635144
140	0x3dd2dfae	0.1029657
141	0x3d49cd25	0.049267907
142	0x3d9eee0d	0.07760248
143	0xbd794886	-0.06086018
144	0x3d028f4e	0.031874947
145	0x3dec24bc	0.11530444
146	0x3d42196d	0.04738753
147	0x3d982526	0.074289605
148	0xbd4c58e4	-0.04988946
149	0x3d90fe49	0.07079751
150	0xbdc37d76	-0.09545414
151	0xbdc91271	-0.098179705
152	0xbbf2aae9	-0.007405628
153	0xbda3ae99	-0.07992286
154	0x3db0f835	0.08641092
155	0xbcc66245	-0.02421678
156	0x3dd7b0ba	0.10531755
157	0x3e117dda	0.14208165
158	0xbe14163e	-0.1446161
159	0xbd7ea64f	-0.062170323
160	0x3e0b7309	0.13618101
161	0xbc3a998c	-0.0113891475
162	0x3ceb1190	0.028694898
163	0x3d24fc46	0.04027965
164	0x3dbc26ef	0.091871135
165	0x3d89cfb0	0.06729066
166	0x3d96919f	0.07351994
167	0x3d4141bd	0.047181834
168	0xbd116f85	-0.035506744
169	0x3e04c7c7	0.12966834
170	0xbd9412e9	-0.07230169
171	0xbd545638	-0.051840037
172	0xbd726d7c	-0.059186444
173	0xbdcb6079	-0.0993051
174	0xbddccf75	-0.10781757
175	0x3d8e005e	0.06933664
176	0x3d5712a5	0.052508015
177	0xbd925771	-0.071455844
178	0xbe16eb69	-0.1473824
179	0x3e13b166	0.14423141
180	0xbe05d3c3	-0.13069062
181	0x3d81e314	0.0634214
182	0xbdc189ef	-0.09450137
183	0xbe0e5da2	-0.13902906
184	0x3e2891ea	0.16461912
185	0x3d816e5c	0.063198775
186	0xbd11270f	-0.03543764
187	0xbd84bf7e	-0.06481837
188	0x3da4d932	0.08049239
189	0xbe1354b8	-0.14387786
190	0xbdaf0ded	-0.08547578
191	0x3dd30c6a	0.10305102
192	0x3d9a73e3	0.07541635
193	0x3c6fa497	0.014626644
194	0xbd3b92c2	-0.045794256
195	0x3e07d2e9	0.1326405
196	0x3e2dbf75	0.16967566
197	0x3d689b3d	0.05678867
198	0x3e2a1806	0.16610727
199	0x3e210d08	0.15727627
200	0x3dc565fc	0.096385926
201	0x3d831deb	0.06402191
202	0x3e3b3e44	0.18285471
203	0x3e06afd7	0.13153015
204	0x3e1952f6	0.14973053
205	0x3e247ecb	0.16063993
206	0x3e120a56	0.14261755
207	0x3dde62f7	0.1085872
208	0x3e39ff54	0.18163806
209	0x3cdcd781	0.026958229
210	0x3e02acfe	0.12761304
211	0x3e082305	0.13294609
212	0x3ddfa5a0	0.10920262
213	0xbc951d1c	-0.018202357
214	0x3e442ff3	0.19158916
215	0x3e066944	0.13126093
216	0x3def2b6a	0.116782025
217	0xbc9f9513	-0.019480264
218	0x3da40593	0.08008876
219	0x3dea9473	0.11454096
220	0x3db3422a	0.08752854
221	0x3c157309	0.009121665
222	0x3e3aad35	0.18230136
223	0xbc4b90a7	-0.0124246245
224	0x3e2226d8	0.1583513
225	0x3d86c260	0.06580043
226	0x3e5626a9	0.20913185
227	0x3e2aad54	0.16667682
228	0x3e465f4b	0.19372289
229	0x3d90acd3	0.070642136
230	0x3e15efd0	0.14642262
231	0xbd1897e9	-0.037254248
232	0x3df47767	0.11936837
233	0x3e36fc5e	0.17869708
234	0xbcd51162	-0.026009265
235	0x3d8b4bcd	0.06801567
236	0x3ca9d5a4	0.020731755
237	0x3e0cd953	0.13754778
238	0x3e1ec105	0.15503319
239	0x3dc765db	0.09736224
240	0x3e02290e	0.12710974
241	0x3dc77e39	0.09740872
242	0x3d905706	0.070478484
243	0x3e562379	0.20911969
244	0x3e2a746c	0.16645974
245	0x3c75ce7c	0.015002843
246	0x3a234f04	0.0006229731
247	0x3be837a7	0.0070867124
248	0x3d87c13b	0.06628653
249	0x3c2fc0f4	0.010727156
250	0x3c580b0d	0.013186228
251	0x3e18b939	0.14914407
252	0x3e09c066	0.134523
253	0xbc0f7dde	-0.008758036
254	0x3d70e0a3	0.05880798
255	0x3de14643	0.109997295

fc.weight f4 [1, 64]
0	0xbf73645c	-0.9507501
1	0x3f7f03cc	0.9961517
2	0xbf6b1722	-0.9183217
3	0xbf5e93b8	-0.8694415
4	0xbf777e4d	-0.96677095
5	0xbf7d10ad	-0.9885357
6	0x3f5c2700	0.8599701
7	0x3f6dcb8c	0.9288871
8	0xbf6f0bf5	-0.9337762
9	0x3f7c0303	0.98442096
10	0x3f74aa07	0.9557194
11	0xbf69be31	-0.91305834
12	0x3f79f06c	0.9763248
13	0xbf7df680	-0.99204254
14	0xbf7db245	-0.9910014
15	0xbf7f9fde	-0.9985331
16	0x3f77386b	0.9657046
17	0x3f6033cf	0.87579054
18	0xbf80773a	-1.0036385
19	0xbf802ac3	-1.001305
20	0x3f6ff918	0.9373946
21	0xbf75a8b3	-0.9596054
22	0xbf709170	-0.9397192
23	0xbf6361d2	-0.88821137
24	0x3f7572a3	0.95878047
25	0x3f6e3dfd	0.93063337
26	0x3f79cdb5	0.9757951
27	0x3f77f6bd	0.9686087
28	0x3f779b5c	0.96721435
29	0x3f7a7fe8	0.9785142
30	0xbf811321	-1.0083963
31	0xbf62d6f7	-0.8860926
32	0x3f80223b	1.0010446
33	0xbf786e14	-0.97042966
34	0xbf79df56	-0.9760641
35	0xbf7ebc36	-0.9950594
36	0xbf5f0c44	-0.8712809
37	0x3f7b232c	0.98100543
38	0xbf7689ea	-0.9630419
39	0xbf705142	-0.9387399
40	0xbf70425b	-0.9385125
41	0x3f782c6e	0.96942794
42	0x3f70325a	0.9382683
43	0xbf7aa67f	-0.979103
44	0x3f6782d7	0.9043402
45	0xbf72d4b3	-0.94855803
46	0xbf66f756	-0.90221155
47	0x3f773ce0	0.9657726
48	0xbf787a10	-0.9706125
49	0xbf63d242	-0.889927
50	0xbf5e3742	-0.86803067
51	0x3f6aac16	0.9166883
52	0xbf58df7c	-0.8471601
53	0xbf811034	-1.008307
54	0xbf839238	-1.0278997
55	0xbf68bbed	-0.9091175
56	0x3f746917	0.95472854
57	0xbf7c0fbc	-0.9846151
58	0xbf67af8e	-0.9050225
59	0x3f838918	1.0276213
60	0x3f826354	1.0186563
61	0xbf7cc1b5	-0.98733073
62	0x3f816ea5	1.0111891
63	0x3f6a4cc2	0.91523373
